…
number of parameters: 123.62M
number of parameters: 123.62M
num decayed parameter tensors: 56, with 124,391,424 parameters
num non-decayed parameter tensors: 25, with 19,200 parameters
using fused AdamW: True
num decayed parameter tensors: 56, with 124,391,424 parameters
num non-decayed parameter tensors: 25, with 19,200 parameters
using fused AdamW: True
number of parameters: 123.62M
num decayed parameter tensors: 56, with 124,391,424 parameters
num non-decayed parameter tensors: 25, with 19,200 parameters
using fused AdamW: True
Model (124410624 numel): GPT(
  (transformer): ModuleDict(
    (wte): Embedding(50304, 768)
    (wpe): Embedding(1024, 768)
    (drop): Dropout(p=0.0, inplace=False)
    (h): ModuleList(
      (0-5): 6 x Block(
        (ln_1): LayerNorm()
        (attn): CausalSelfAttention(
          (c_attn): Linear(in_features=768, out_features=2304, bias=False)
          (c_proj): Linear(in_features=768, out_features=768, bias=False)
          (attn_dropout): Dropout(p=0.0, inplace=False)
          (resid_dropout): Dropout(p=0.0, inplace=False)
        )
        (ln_2): LayerNorm()
        (mlp): MLP(
          (c_fc): Linear(in_features=768, out_features=3072, bias=False)
          (gelu): GELU(approximate='none')
          (c_proj): Linear(in_features=3072, out_features=768, bias=False)
          (dropout): Dropout(p=0.0, inplace=False)
        )
      )
      (6-11): 6 x SoftMoEBlock(
        (ln_1): LayerNorm()
        (attn): CausalSelfAttention(
          (c_attn): Linear(in_features=768, out_features=2304, bias=False)
          (c_proj): Linear(in_features=768, out_features=768, bias=False)
          (attn_dropout): Dropout(p=0.0, inplace=False)
          (resid_dropout): Dropout(p=0.0, inplace=False)
        )
        (ln_2): LayerNorm()
        (moe): SoftMoE(
          (experts): ModuleList(
            (0): MLP(
              (c_fc): Linear(in_features=768, out_features=3072, bias=False)
              (gelu): GELU(approximate='none')
              (c_proj): Linear(in_features=3072, out_features=768, bias=False)
              (dropout): Dropout(p=0.0, inplace=False)
            )
          )
        )
      )
    )
    (ln_f): LayerNorm()
  )
  (lm_head): Linear(in_features=768, out_features=50304, bias=False)
)
num decayed parameter tensors: 56, with 124,391,424 parameters
num non-decayed parameter tensors: 25, with 19,200 parameters
using fused AdamW: True
number of parameters: 123.62M
num decayed parameter tensors: 56, with 124,391,424 parameters
num non-decayed parameter tensors: 25, with 19,200 parameters
using fused AdamW: True
Initialized with DDP!
…
