…
num non-decayed parameter tensors: 194, with 321,536 parameters
using fused AdamW: True
compiling the model... (takes a ~minute)
num decayed parameter tensors: 98, with 354,501,632 parameters
num non-decayed parameter tensors: 194, with 321,536 parameters
using fused AdamW: True
compiling the model... (takes a ~minute)
num decayed parameter tensors: 98, with 354,501,632 parameters
num non-decayed parameter tensors: 194, with 321,536 parameters
using fused AdamW: True
compiling the model... (takes a ~minute)
Model (354823168 numel): OptimizedModule(
  (_orig_mod): GPT(
    (transformer): ModuleDict(
      (wte): Embedding(50257, 1024)
      (wpe): Embedding(1024, 1024)
      (drop): Dropout(p=0.0, inplace=False)
      (h): ModuleList(
        (0-23): 24 x Block(
          (ln_1): LayerNorm()
          (attn): CausalSelfAttention(
            (c_attn): Linear(in_features=1024, out_features=3072, bias=True)
            (c_proj): Linear(in_features=1024, out_features=1024, bias=True)
            (attn_dropout): Dropout(p=0.0, inplace=False)
            (resid_dropout): Dropout(p=0.0, inplace=False)
          )
          (ln_2): LayerNorm()
          (mlp): MLP(
            (c_fc): Linear(in_features=1024, out_features=4096, bias=True)
            (gelu): GELU(approximate='none')
            (c_proj): Linear(in_features=4096, out_features=1024, bias=True)
            (dropout): Dropout(p=0.0, inplace=False)
          )
        )
      )
      (ln_f): LayerNorm()
    )
    (lm_head): Linear(in_features=1024, out_features=50257, bias=False)
  )
)
Initialized with DDP!
step 0: train loss 2.8325, val loss 2.8336
iter 0: loss 2.8806, time 107587.17ms, mfu -100.00% | peak active: 23.779735565185547 GB | peak reserved: 24.873046875 GB
iter 1: loss 2.8389, time 1150.93ms, mfu -100.00% | peak active: 26.423128128051758 GB | peak reserved: 27.177734375 GB
iter 2: loss 2.8529, time 1153.84ms, mfu -100.00% | peak active: 26.423128128051758 GB | peak reserved: 28.330078125 GB
…
