…
num non-decayed parameter tensors: 25, with 19,200 parameters
using fused AdamW: True
compiling the model... (takes a ~minute)
num decayed parameter tensors: 50, with 124,354,560 parameters
num non-decayed parameter tensors: 25, with 19,200 parameters
using fused AdamW: True
compiling the model... (takes a ~minute)
num decayed parameter tensors: 50, with 124,354,560 parameters
num non-decayed parameter tensors: 25, with 19,200 parameters
using fused AdamW: True
compiling the model... (takes a ~minute)
Model (124373760 numel): OptimizedModule(
  (_orig_mod): GPT(
    (transformer): ModuleDict(
      (wte): Embedding(50304, 768)
      (wpe): Embedding(1024, 768)
      (drop): Dropout(p=0.0, inplace=False)
      (h): ModuleList(
        (0-11): 12 x Block(
          (ln_1): LayerNorm()
          (attn): CausalSelfAttention(
            (c_attn): Linear(in_features=768, out_features=2304, bias=False)
            (c_proj): Linear(in_features=768, out_features=768, bias=False)
            (attn_dropout): Dropout(p=0.0, inplace=False)
            (resid_dropout): Dropout(p=0.0, inplace=False)
          )
          (ln_2): LayerNorm()
          (mlp): MLP(
            (c_fc): Linear(in_features=768, out_features=3072, bias=False)
            (gelu): GELU(approximate='none')
            (c_proj): Linear(in_features=3072, out_features=768, bias=False)
            (dropout): Dropout(p=0.0, inplace=False)
          )
        )
      )
      (ln_f): LayerNorm()
    )
    (lm_head): Linear(in_features=768, out_features=50304, bias=False)
  )
)
Initialized with DDP over group of size 8!
step 0: train loss 10.9886, val loss 10.9897
iter 0: loss 10.9933, time 47868.81ms, mfu -100.00% | peak active: 13.354259490966797 GB | peak reserved: 14.12890625 GB
iter 1: loss 10.9766, time 416.51ms, mfu -100.00% | peak active: 14.277419567108154 GB | peak reserved: 15.28125 GB
iter 2: loss 10.9809, time 415.90ms, mfu -100.00% | peak active: 14.277419567108154 GB | peak reserved: 15.28125 GB
…
